…
-- Evaluation after Epoch [300/300], Test Loss: 0.0847
Loading the best model from checkpoint with test loss: 0.0644
Validation Loss (RMSE): 0.0644
Validation results saved to: ./Results\LSTM_Study_20250130_103836\Val\validation_results.txt
Avg Test Loss before reverse scaling(RMSE): 0.0644
Avg Test Loss after reverse scaling (RMSE): 47.7410
Test results saved to: ./Results\LSTM_Study_20250130_103836\Test\test_results.txt
[4;33mReloaded modules[24m: study_folder, prepare_data02, Network.lstm_network, params[0m
Output shape: torch.Size([32, 24])
DeepLSTMModel(
  (lstm): LSTM(11, 128, num_layers=3, batch_first=True, dropout=0.3)
  (fc_1): Linear(in_features=128, out_features=128, bias=True)
  (bn1): BatchNorm1d(128, eps=1e-05, momentum=0.1, affine=True, track_running_stats=True)
  (fc_2): Linear(in_features=128, out_features=64, bias=True)
  (bn2): BatchNorm1d(64, eps=1e-05, momentum=0.1, affine=True, track_running_stats=True)
  (fc_3): Linear(in_features=64, out_features=24, bias=True)
  (relu): ReLU()
  (dropout): Dropout(p=0.3, inplace=False)
)
[4;33mReloaded modules[24m: Network.lstm_network[0m
Output shape: torch.Size([32, 24])
LSTMModel(
  (lstm): LSTM(11, 128, num_layers=3, batch_first=True, dropout=0.3)
  (fc_1): Linear(in_features=128, out_features=128, bias=True)
  (bn1): BatchNorm1d(128, eps=1e-05, momentum=0.1, affine=True, track_running_stats=True)
  (fc_2): Linear(in_features=128, out_features=64, bias=True)
  (bn2): BatchNorm1d(64, eps=1e-05, momentum=0.1, affine=True, track_running_stats=True)
  (fc_3): Linear(in_features=64, out_features=24, bias=True)
  (relu): ReLU()
  (dropout): Dropout(p=0.3, inplace=False)
)
96
32
./Results\LSTM_Study_20250130_105000
./Results\LSTM_Study_20250130_105000\Train
Config file saved to: ./Results\LSTM_Study_20250130_105000\params.py
./01_PM2.5 Chinese Weather data\BeijingPM20100101_20151231.csv
Range of PM values: 993.0 (Min: 1.0, Max: 994.0)
Avg of PM values: 95.18355527059907
…
